Start Model Training
Model Summary for the model : 0 and iteration - 0 : 
_________________________________________________________________
Layer (type)                 Output Shape              Param #   
=================================================================
batch_normalization_1 (Batch (None, 28, 28, 4)         16        
_________________________________________________________________
conv2d_1 (Conv2D)            (None, 28, 28, 24)        888       
_________________________________________________________________
max_pooling2d_1 (MaxPooling2 (None, 14, 14, 24)        0         
_________________________________________________________________
dropout_1 (Dropout)          (None, 14, 14, 24)        0         
_________________________________________________________________
conv2d_2 (Conv2D)            (None, 14, 14, 64)        13888     
_________________________________________________________________
max_pooling2d_2 (MaxPooling2 (None, 7, 7, 64)          0         
_________________________________________________________________
dropout_2 (Dropout)          (None, 7, 7, 64)          0         
_________________________________________________________________
flatten_1 (Flatten)          (None, 3136)              0         
_________________________________________________________________
dense_1 (Dense)              (None, 128)               401536    
_________________________________________________________________
dropout_3 (Dropout)          (None, 128)               0         
_________________________________________________________________
dense_2 (Dense)              (None, 128)               16512     
_________________________________________________________________
batch_normalization_2 (Batch (None, 128)               512       
_________________________________________________________________
dense_3 (Dense)              (None, 10)                1290      
=================================================================
Total params: 434,642
Trainable params: 434,378
Non-trainable params: 264
_________________________________________________________________
Running for model# [0] - iteration (0): 
