Start Model Training
Model Summary for the model : 0 and iteration - 0 : 
_________________________________________________________________
Layer (type)                 Output Shape              Param #   
=================================================================
batch_normalization_1 (Batch (None, 28, 28, 4)         16        
_________________________________________________________________
conv2d_1 (Conv2D)            (None, 28, 28, 24)        888       
_________________________________________________________________
max_pooling2d_1 (MaxPooling2 (None, 14, 14, 24)        0         
_________________________________________________________________
dropout_1 (Dropout)          (None, 14, 14, 24)        0         
_________________________________________________________________
conv2d_2 (Conv2D)            (None, 14, 14, 64)        13888     
_________________________________________________________________
max_pooling2d_2 (MaxPooling2 (None, 7, 7, 64)          0         
_________________________________________________________________
dropout_2 (Dropout)          (None, 7, 7, 64)          0         
_________________________________________________________________
flatten_1 (Flatten)          (None, 3136)              0         
_________________________________________________________________
dense_1 (Dense)              (None, 128)               401536    
_________________________________________________________________
dropout_3 (Dropout)          (None, 128)               0         
_________________________________________________________________
dense_2 (Dense)              (None, 128)               16512     
_________________________________________________________________
batch_normalization_2 (Batch (None, 128)               512       
_________________________________________________________________
dense_3 (Dense)              (None, 10)                1290      
=================================================================
Total params: 434,642
Trainable params: 434,378
Non-trainable params: 264
_________________________________________________________________
Running for model# [0] - iteration (0): 
Training Evaluation for model# [0] - iteration (0): 
Training: 	0.25326535 loss / 0.90587500 acc
Validation: 	0.23368931 loss / 0.91430000 acc
Model Summary for the model : 1 and iteration - 0 : 
_________________________________________________________________
Layer (type)                 Output Shape              Param #   
=================================================================
batch_normalization_3 (Batch (None, 28, 28, 4)         16        
_________________________________________________________________
conv2d_3 (Conv2D)            (None, 28, 28, 24)        888       
_________________________________________________________________
max_pooling2d_3 (MaxPooling2 (None, 14, 14, 24)        0         
_________________________________________________________________
dropout_4 (Dropout)          (None, 14, 14, 24)        0         
_________________________________________________________________
conv2d_4 (Conv2D)            (None, 14, 14, 64)        13888     
_________________________________________________________________
max_pooling2d_4 (MaxPooling2 (None, 7, 7, 64)          0         
_________________________________________________________________
dropout_5 (Dropout)          (None, 7, 7, 64)          0         
_________________________________________________________________
flatten_2 (Flatten)          (None, 3136)              0         
_________________________________________________________________
dense_4 (Dense)              (None, 128)               401536    
_________________________________________________________________
dropout_6 (Dropout)          (None, 128)               0         
_________________________________________________________________
dense_5 (Dense)              (None, 128)               16512     
_________________________________________________________________
batch_normalization_4 (Batch (None, 128)               512       
_________________________________________________________________
dense_6 (Dense)              (None, 10)                1290      
=================================================================
Total params: 434,642
Trainable params: 434,378
Non-trainable params: 264
_________________________________________________________________
Running for model# [1] - iteration (0): 
Training Evaluation for model# [1] - iteration (0): 
Training: 	0.19304888 loss / 0.92800000 acc
Validation: 	0.21828880 loss / 0.92080000 acc
Model Summary for the model : 2 and iteration - 0 : 
_________________________________________________________________
Layer (type)                 Output Shape              Param #   
=================================================================
batch_normalization_5 (Batch (None, 28, 28, 4)         16        
_________________________________________________________________
conv2d_5 (Conv2D)            (None, 28, 28, 24)        408       
_________________________________________________________________
max_pooling2d_5 (MaxPooling2 (None, 14, 14, 24)        0         
_________________________________________________________________
dropout_7 (Dropout)          (None, 14, 14, 24)        0         
_________________________________________________________________
conv2d_6 (Conv2D)            (None, 14, 14, 64)        6208      
_________________________________________________________________
max_pooling2d_6 (MaxPooling2 (None, 7, 7, 64)          0         
_________________________________________________________________
dropout_8 (Dropout)          (None, 7, 7, 64)          0         
_________________________________________________________________
flatten_3 (Flatten)          (None, 3136)              0         
_________________________________________________________________
dense_7 (Dense)              (None, 92)                288604    
_________________________________________________________________
dropout_9 (Dropout)          (None, 92)                0         
_________________________________________________________________
dense_8 (Dense)              (None, 128)               11904     
_________________________________________________________________
batch_normalization_6 (Batch (None, 128)               512       
_________________________________________________________________
dense_9 (Dense)              (None, 10)                1290      
=================================================================
Total params: 308,942
Trainable params: 308,678
Non-trainable params: 264
_________________________________________________________________
Running for model# [2] - iteration (0): 
Training Evaluation for model# [2] - iteration (0): 
Training: 	0.22664574 loss / 0.91572500 acc
Validation: 	0.22841261 loss / 0.91600000 acc
Model Summary for the model : 3 and iteration - 0 : 
_________________________________________________________________
Layer (type)                 Output Shape              Param #   
=================================================================
batch_normalization_7 (Batch (None, 28, 28, 4)         16        
_________________________________________________________________
conv2d_7 (Conv2D)            (None, 28, 28, 64)        2368      
_________________________________________________________________
max_pooling2d_7 (MaxPooling2 (None, 14, 14, 64)        0         
_________________________________________________________________
dropout_10 (Dropout)         (None, 14, 14, 64)        0         
_________________________________________________________________
conv2d_8 (Conv2D)            (None, 14, 14, 64)        36928     
_________________________________________________________________
max_pooling2d_8 (MaxPooling2 (None, 7, 7, 64)          0         
_________________________________________________________________
dropout_11 (Dropout)         (None, 7, 7, 64)          0         
_________________________________________________________________
flatten_4 (Flatten)          (None, 3136)              0         
_________________________________________________________________
dense_10 (Dense)             (None, 92)                288604    
_________________________________________________________________
dropout_12 (Dropout)         (None, 92)                0         
_________________________________________________________________
dense_11 (Dense)             (None, 128)               11904     
_________________________________________________________________
batch_normalization_8 (Batch (None, 128)               512       
_________________________________________________________________
dense_12 (Dense)             (None, 10)                1290      
=================================================================
Total params: 341,622
Trainable params: 341,358
Non-trainable params: 264
_________________________________________________________________
Running for model# [3] - iteration (0): 
Training Evaluation for model# [3] - iteration (0): 
Training: 	0.16479642 loss / 0.93942500 acc
Validation: 	0.22444323 loss / 0.92230000 acc
Model Summary for the model : 4 and iteration - 0 : 
_________________________________________________________________
Layer (type)                 Output Shape              Param #   
=================================================================
batch_normalization_9 (Batch (None, 28, 28, 4)         16        
_________________________________________________________________
conv2d_9 (Conv2D)            (None, 28, 28, 32)        1184      
_________________________________________________________________
max_pooling2d_9 (MaxPooling2 (None, 14, 14, 32)        0         
_________________________________________________________________
dropout_13 (Dropout)         (None, 14, 14, 32)        0         
_________________________________________________________________
conv2d_10 (Conv2D)           (None, 14, 14, 96)        27744     
_________________________________________________________________
max_pooling2d_10 (MaxPooling (None, 7, 7, 96)          0         
_________________________________________________________________
dropout_14 (Dropout)         (None, 7, 7, 96)          0         
_________________________________________________________________
flatten_5 (Flatten)          (None, 4704)              0         
_________________________________________________________________
dense_13 (Dense)             (None, 96)                451680    
_________________________________________________________________
dropout_15 (Dropout)         (None, 96)                0         
_________________________________________________________________
dense_14 (Dense)             (None, 128)               12416     
_________________________________________________________________
batch_normalization_10 (Batc (None, 128)               512       
_________________________________________________________________
dense_15 (Dense)             (None, 10)                1290      
=================================================================
Total params: 494,842
Trainable params: 494,578
Non-trainable params: 264
_________________________________________________________________
Running for model# [4] - iteration (0): 
Training Evaluation for model# [4] - iteration (0): 
Training: 	0.16844703 loss / 0.93667500 acc
Validation: 	0.21938752 loss / 0.91970000 acc
Model Summary for the model : 5 and iteration - 0 : 
_________________________________________________________________
Layer (type)                 Output Shape              Param #   
=================================================================
batch_normalization_11 (Batc (None, 28, 28, 4)         16        
_________________________________________________________________
conv2d_11 (Conv2D)           (None, 28, 28, 24)        888       
_________________________________________________________________
max_pooling2d_11 (MaxPooling (None, 14, 14, 24)        0         
_________________________________________________________________
dropout_16 (Dropout)         (None, 14, 14, 24)        0         
_________________________________________________________________
conv2d_12 (Conv2D)           (None, 14, 14, 132)       28644     
_________________________________________________________________
max_pooling2d_12 (MaxPooling (None, 7, 7, 132)         0         
_________________________________________________________________
dropout_17 (Dropout)         (None, 7, 7, 132)         0         
_________________________________________________________________
flatten_6 (Flatten)          (None, 6468)              0         
_________________________________________________________________
dense_16 (Dense)             (None, 96)                621024    
_________________________________________________________________
dropout_18 (Dropout)         (None, 96)                0         
_________________________________________________________________
dense_17 (Dense)             (None, 96)                9312      
_________________________________________________________________
batch_normalization_12 (Batc (None, 96)                384       
_________________________________________________________________
dense_18 (Dense)             (None, 10)                970       
=================================================================
Total params: 661,238
Trainable params: 661,038
Non-trainable params: 200
_________________________________________________________________
Running for model# [5] - iteration (0): 
Training Evaluation for model# [5] - iteration (0): 
Training: 	0.17633258 loss / 0.93337500 acc
Validation: 	0.21108922 loss / 0.92530000 acc
Model Summary for the model : 6 and iteration - 0 : 
_________________________________________________________________
Layer (type)                 Output Shape              Param #   
=================================================================
batch_normalization_13 (Batc (None, 28, 28, 4)         16        
_________________________________________________________________
conv2d_13 (Conv2D)           (None, 28, 28, 24)        888       
_________________________________________________________________
max_pooling2d_13 (MaxPooling (None, 14, 14, 24)        0         
_________________________________________________________________
dropout_19 (Dropout)         (None, 14, 14, 24)        0         
_________________________________________________________________
conv2d_14 (Conv2D)           (None, 14, 14, 132)       12804     
_________________________________________________________________
max_pooling2d_14 (MaxPooling (None, 7, 7, 132)         0         
_________________________________________________________________
dropout_20 (Dropout)         (None, 7, 7, 132)         0         
_________________________________________________________________
flatten_7 (Flatten)          (None, 6468)              0         
_________________________________________________________________
dense_19 (Dense)             (None, 96)                621024    
_________________________________________________________________
dropout_21 (Dropout)         (None, 96)                0         
_________________________________________________________________
dense_20 (Dense)             (None, 128)               12416     
_________________________________________________________________
batch_normalization_14 (Batc (None, 128)               512       
_________________________________________________________________
dense_21 (Dense)             (None, 10)                1290      
=================================================================
Total params: 648,950
Trainable params: 648,686
Non-trainable params: 264
_________________________________________________________________
Running for model# [6] - iteration (0): 
Training Evaluation for model# [6] - iteration (0): 
Training: 	0.18415016 loss / 0.93015000 acc
Validation: 	0.22165100 loss / 0.92120000 acc
Model Summary for the model : 7 and iteration - 0 : 
_________________________________________________________________
Layer (type)                 Output Shape              Param #   
=================================================================
batch_normalization_15 (Batc (None, 28, 28, 4)         16        
_________________________________________________________________
conv2d_15 (Conv2D)           (None, 28, 28, 24)        408       
_________________________________________________________________
max_pooling2d_15 (MaxPooling (None, 14, 14, 24)        0         
_________________________________________________________________
dropout_22 (Dropout)         (None, 14, 14, 24)        0         
_________________________________________________________________
conv2d_16 (Conv2D)           (None, 14, 14, 132)       28644     
_________________________________________________________________
max_pooling2d_16 (MaxPooling (None, 7, 7, 132)         0         
_________________________________________________________________
dropout_23 (Dropout)         (None, 7, 7, 132)         0         
_________________________________________________________________
flatten_8 (Flatten)          (None, 6468)              0         
_________________________________________________________________
dense_22 (Dense)             (None, 96)                621024    
_________________________________________________________________
dropout_24 (Dropout)         (None, 96)                0         
_________________________________________________________________
dense_23 (Dense)             (None, 128)               12416     
_________________________________________________________________
batch_normalization_16 (Batc (None, 128)               512       
_________________________________________________________________
dense_24 (Dense)             (None, 10)                1290      
=================================================================
Total params: 664,310
Trainable params: 664,046
Non-trainable params: 264
_________________________________________________________________
Running for model# [7] - iteration (0): 
Training Evaluation for model# [7] - iteration (0): 
Training: 	0.18600306 loss / 0.92955000 acc
Validation: 	0.21379525 loss / 0.92160000 acc
Model Summary for the model : 8 and iteration - 0 : 
_________________________________________________________________
Layer (type)                 Output Shape              Param #   
=================================================================
batch_normalization_17 (Batc (None, 28, 28, 4)         16        
_________________________________________________________________
conv2d_17 (Conv2D)           (None, 28, 28, 24)        888       
_________________________________________________________________
max_pooling2d_17 (MaxPooling (None, 14, 14, 24)        0         
_________________________________________________________________
dropout_25 (Dropout)         (None, 14, 14, 24)        0         
_________________________________________________________________
conv2d_18 (Conv2D)           (None, 14, 14, 132)       12804     
_________________________________________________________________
max_pooling2d_18 (MaxPooling (None, 7, 7, 132)         0         
_________________________________________________________________
dropout_26 (Dropout)         (None, 7, 7, 132)         0         
_________________________________________________________________
flatten_9 (Flatten)          (None, 6468)              0         
_________________________________________________________________
dense_25 (Dense)             (None, 96)                621024    
_________________________________________________________________
dropout_27 (Dropout)         (None, 96)                0         
_________________________________________________________________
dense_26 (Dense)             (None, 128)               12416     
_________________________________________________________________
batch_normalization_18 (Batc (None, 128)               512       
_________________________________________________________________
dense_27 (Dense)             (None, 10)                1290      
=================================================================
Total params: 648,950
Trainable params: 648,686
Non-trainable params: 264
_________________________________________________________________
Running for model# [8] - iteration (0): 
Training Evaluation for model# [8] - iteration (0): 
Training: 	0.18283883 loss / 0.93092500 acc
Validation: 	0.22554795 loss / 0.91910000 acc
Model Summary for the model : 9 and iteration - 0 : 
_________________________________________________________________
Layer (type)                 Output Shape              Param #   
=================================================================
batch_normalization_19 (Batc (None, 28, 28, 4)         16        
_________________________________________________________________
conv2d_19 (Conv2D)           (None, 28, 28, 24)        408       
_________________________________________________________________
max_pooling2d_19 (MaxPooling (None, 14, 14, 24)        0         
_________________________________________________________________
dropout_28 (Dropout)         (None, 14, 14, 24)        0         
_________________________________________________________________
conv2d_20 (Conv2D)           (None, 14, 14, 96)        9312      
_________________________________________________________________
max_pooling2d_20 (MaxPooling (None, 7, 7, 96)          0         
_________________________________________________________________
dropout_29 (Dropout)         (None, 7, 7, 96)          0         
_________________________________________________________________
flatten_10 (Flatten)         (None, 4704)              0         
_________________________________________________________________
dense_28 (Dense)             (None, 96)                451680    
_________________________________________________________________
dropout_30 (Dropout)         (None, 96)                0         
_________________________________________________________________
dense_29 (Dense)             (None, 96)                9312      
_________________________________________________________________
batch_normalization_20 (Batc (None, 96)                384       
_________________________________________________________________
dense_30 (Dense)             (None, 10)                970       
=================================================================
Total params: 472,082
Trainable params: 471,882
Non-trainable params: 200
_________________________________________________________________
Running for model# [9] - iteration (0): 
Training Evaluation for model# [9] - iteration (0): 
Training: 	0.18563021 loss / 0.92977500 acc
Validation: 	0.22005421 loss / 0.91890000 acc
